…
I0512 12:59:07.931495 20639 net.cpp:313] The NetState phase (0) differed from the phase (1) specified by a rule in layer resnet
I0512 12:59:07.931552 20639 net.cpp:313] The NetState phase (0) differed from the phase (1) specified by a rule in layer accuracy
I0512 12:59:07.932098 20639 net.cpp:49] Initializing net from parameters: 
name: "ResNet"
state {
  phase: TRAIN
}
layer {
  name: "resnet"
  type: "Data"
  top: "data"
  top: "label"
  include {
    phase: TRAIN
  }
  transform_param {
    mirror: false
    crop_size: 28
    mean_file: "num_mean.binaryproto"
  }
  data_param {
    source: "train_lmdb"
    batch_size: 64
    backend: LMDB
  }
}
layer {
  name: "conv0"
  type: "Convolution"
  bottom: "data"
  top: "conv0"
  param {
    lr_mult: 1
  }
  param {
    lr_mult: 2
  }
  convolution_param {
    num_output: 16
    pad: 1
    kernel_size: 3
    stride: 1
    weight_filler {
      type: "gaussian"
      std: 0.0001
    }
    bias_filler {
      type: "constant"
    }
  }
}
layer {
  name: "bn0"
  type: "BatchNorm"
  bottom: "conv0"
  top: "bn0"
  param {
    lr_mult: 0
  }
  param {
    lr_mult: 0
  }
  param {
    lr_mult: 0
  }
  batch_norm_param {
    use_global_stats: false
  }
}
layer {
  name: "relu0"
  type: "ReLU"
  bottom: "bn0"
  top: "bn0"
}
layer {
  name: "conv1_1_1"
  type: "Convolution"
  bottom: "bn0"
  top: "conv1_1_1"
  param {
    lr_mult: 1
    decay_mult: 1
  }
  param {
    lr_mult: 2
    decay_mult: 1
  }
  convolution_param {
    num_output: 16
    pad: 1
    kernel_size: 3
    stride: 1
    weight_filler {
      type: "gaussian"
      std: 0.0001
    }
    bias_filler {
      type: "constant"
    }
  }
}
layer {
  name: "bn1_1_1"
  type: "BatchNorm"
  bottom: "conv1_1_1"
  top: "bn1_1_1"
  param {
    lr_mult: 0
  }
  param {
    lr_mult: 0
  }
  param {
    lr_mult: 0
  }
  batch_norm_param {
    use_global_stats: false
  }
}
layer {
  name: "relu1_1_1"
  type: "ReLU"
  bottom: "bn1_1_1"
  top: "bn1_1_1"
}
layer {
  name: "conv1_1_2"
  type: "Convolution"
  bottom: "bn1_1_1"
  top: "conv1_1_2"
  param {
    lr_mult: 1
    decay_mult: 1
  }
  param {
    lr_mult: 2
    decay_mult: 1
  }
  convolution_param {
    num_output: 16
    pad: 1
    kernel_size: 3
    stride: 1
    weight_filler {
      type: "gaussian"
      std: 0.0001
    }
    bias_filler {
      type: "constant"
    }
  }
}
layer {
  name: "bn1_1_2"
  type: "BatchNorm"
  bottom: "conv1_1_2"
  top: "bn1_1_2"
  param {
    lr_mult: 0
  }
  param {
    lr_mult: 0
  }
  param {
    lr_mult: 0
  }
  batch_norm_param {
    use_global_stats: false
  }
}
layer {
  name: "relu1_1_2"
  type: "ReLU"
  bottom: "bn1_1_2"
  top: "bn1_1_2"
}
layer {
  name: "elt_1_1"
  type: "Eltwise"
  bottom: "bn0"
  bottom: "bn1_1_2"
  top: "elt1_1"
  eltwise_param {
    operation: SUM
  }
}
layer {
  name: "conv2_1_1"
  type: "Convolution"
  bottom: "elt1_1"
  top: "conv2_1_1"
  param {
    lr_mult: 1
    decay_mult: 1
  }
  param {
    lr_mult: 2
    decay_mult: 1
  }
  convolution_param {
    num_output: 32
    pad: 1
    kernel_size: 3
    stride: 2
    weight_filler {
      type: "gaussian"
      std: 0.0001
    }
    bias_filler {
      type: "constant"
    }
  }
}
layer {
  name: "bn2_1_1"
  type: "BatchNorm"
  bottom: "conv2_1_1"
  top: "bn2_1_1"
  param {
    lr_mult: 0
  }
  param {
    lr_mult: 0
  }
  param {
    lr_mult: 0
  }
  batch_norm_param {
    use_global_stats: false
  }
}
layer {
  name: "relu2_1_1"
  type: "ReLU"
  bottom: "bn2_1_1"
  top: "bn2_1_1"
}
layer {
  name: "conv2_1_2"
  type: "Convolution"
  bottom: "bn2_1_1"
  top: "conv2_1_2"
  param {
    lr_mult: 1
    decay_mult: 1
  }
  param {
    lr_mult: 2
    decay_mult: 1
  }
  convolution_param {
    num_output: 32
    pad: 1
    kernel_size: 3
    stride: 1
    weight_filler {
      type: "gaussian"
      std: 0.0001
    }
    bias_filler {
      type: "constant"
    }
  }
}
layer {
  name: "bn2_1_2"
  type: "BatchNorm"
  bottom: "conv2_1_2"
  top: "bn2_1_2"
  param {
    lr_mult: 0
  }
  param {
    lr_mult: 0
  }
  param {
    lr_mult: 0
  }
  batch_norm_param {
    use_global_stats: false
  }
}
layer {
  name: "relu2_1_2"
  type: "ReLU"
  bottom: "bn2_1_2"
  top: "bn2_1_2"
}
layer {
  name: "res2"
  type: "Convolution"
  bottom: "elt1_1"
  top: "res2"
  param {
    lr_mult: 1
    decay_mult: 1
  }
  param {
    lr_mult: 2
    decay_mult: 1
  }
  convolution_param {
    num_output: 32
    pad: 0
    kernel_size: 1
    stride: 2
    weight_filler {
      type: "gaussian"
      std: 0.0001
    }
    bias_filler {
      type: "constant"
    }
  }
}
layer {
  name: "bn2"
  type: "BatchNorm"
  bottom: "res2"
  top: "bn2"
  param {
    lr_mult: 0
  }
  param {
    lr_mult: 0
  }
  param {
    lr_mult: 0
  }
  batch_norm_param {
    use_global_stats: false
  }
}
layer {
  name: "relu2"
  type: "ReLU"
  bottom: "bn2"
  top: "bn2"
}
layer {
  name: "elt_2_1"
  type: "Eltwise"
  bottom: "bn2"
  bottom: "bn2_1_2"
  top: "elt2_1"
  eltwise_param {
    operation: SUM
  }
}
layer {
  name: "conv3_1_1"
  type: "Convolution"
  bottom: "elt2_1"
  top: "conv3_1_1"
  param {
    lr_mult: 1
    decay_mult: 1
  }
  param {
    lr_mult: 2
    decay_mult: 1
  }
  convolution_param {
    num_output: 64
    pad: 1
    kernel_size: 3
    stride: 2
    weight_filler {
      type: "gaussian"
      std: 0.0001
    }
    bias_filler {
      type: "constant"
    }
  }
}
layer {
  name: "bn3_1_1"
  type: "BatchNorm"
  bottom: "conv3_1_1"
  top: "bn3_1_1"
  param {
    lr_mult: 0
  }
  param {
    lr_mult: 0
  }
  param {
    lr_mult: 0
  }
  batch_norm_param {
    use_global_stats: false
  }
}
layer {
  name: "relu3_1_1"
  type: "ReLU"
  bottom: "bn3_1_1"
  top: "bn3_1_1"
}
layer {
  name: "conv3_1_2"
  type: "Convolution"
  bottom: "bn3_1_1"
  top: "conv3_1_2"
  param {
    lr_mult: 1
    decay_mult: 1
  }
  param {
    lr_mult: 2
    decay_mult: 1
  }
  convolution_param {
    num_output: 64
    pad: 1
    kernel_size: 3
    stride: 1
    weight_filler {
      type: "gaussian"
      std: 0.0001
    }
    bias_filler {
      type: "constant"
    }
  }
}
layer {
  name: "bn3_1_2"
  type: "BatchNorm"
  bottom: "conv3_1_2"
  top: "bn3_1_2"
  param {
    lr_mult: 0
  }
  param {
    lr_mult: 0
  }
  param {
    lr_mult: 0
  }
  batch_norm_param {
    use_global_stats: false
  }
}
layer {
  name: "relu3_1_2"
  type: "ReLU"
  bottom: "bn3_1_2"
  top: "bn3_1_2"
}
layer {
  name: "res3"
  type: "Convolution"
  bottom: "elt2_1"
  top: "res3"
  param {
    lr_mult: 1
    decay_mult: 1
  }
  param {
    lr_mult: 2
    decay_mult: 1
  }
  convolution_param {
    num_output: 64
    pad: 0
    kernel_size: 1
    stride: 2
    weight_filler {
      type: "gaussian"
      std: 0.0001
    }
    bias_filler {
      type: "constant"
    }
  }
}
layer {
  name: "bn3"
  type: "BatchNorm"
  bottom: "res3"
  top: "bn3"
  param {
    lr_mult: 0
  }
  param {
    lr_mult: 0
  }
  param {
    lr_mult: 0
  }
  batch_norm_param {
    use_global_stats: false
  }
}
layer {
  name: "relu3"
  type: "ReLU"
  bottom: "bn3"
  top: "bn3"
}
layer {
  name: "elt_3_1"
  type: "Eltwise"
  bottom: "bn3"
  bottom: "bn3_1_2"
  top: "elt3_1"
  eltwise_param {
    operation: SUM
  }
}
layer {
  name: "gap"
  type: "Pooling"
  bottom: "elt3_1"
  top: "gap"
  pooling_param {
    pool: AVE
    kernel_size: 7
    stride: 1
  }
}
layer {
  name: "ip1"
  type: "InnerProduct"
  bottom: "gap"
  top: "ip1"
  param {
    lr_mult: 1
    decay_mult: 1
  }
  param {
    lr_mult: 2
    decay_mult: 0
  }
  inner_product_param {
    num_output: 10
    weight_filler {
      type: "gaussian"
      std: 0.01
    }
    bias_filler {
      type: "constant"
      value: 0
    }
  }
}
layer {
  name: "loss"
  type: "SoftmaxWithLoss"
  bottom: "ip1"
  bottom: "label"
  top: "loss"
}
I0512 12:59:07.932452 20639 layer_factory.hpp:77] Creating layer resnet
I0512 12:59:07.933149 20639 net.cpp:91] Creating Layer resnet
I0512 12:59:07.933176 20639 net.cpp:399] resnet -> data
I0512 12:59:07.933218 20639 net.cpp:399] resnet -> label
I0512 12:59:07.933246 20639 data_transformer.cpp:25] Loading mean file from: num_mean.binaryproto
I0512 12:59:07.933338 20641 db_lmdb.cpp:38] Opened lmdb train_lmdb
I0512 12:59:07.933517 20639 data_layer.cpp:41] output data size: 64,1,28,28
I0512 12:59:07.933712 20639 net.cpp:141] Setting up resnet
I0512 12:59:07.933758 20639 net.cpp:148] Top shape: 64 1 28 28 (50176)
I0512 12:59:07.933773 20639 net.cpp:148] Top shape: 64 (64)
I0512 12:59:07.933781 20639 net.cpp:156] Memory required for data: 200960
I0512 12:59:07.933795 20639 layer_factory.hpp:77] Creating layer conv0
I0512 12:59:07.933825 20639 net.cpp:91] Creating Layer conv0
I0512 12:59:07.933853 20639 net.cpp:425] conv0 <- data
I0512 12:59:07.933877 20639 net.cpp:399] conv0 -> conv0
I0512 12:59:07.933962 20639 net.cpp:141] Setting up conv0
I0512 12:59:07.933990 20639 net.cpp:148] Top shape: 64 16 28 28 (802816)
I0512 12:59:07.934033 20639 net.cpp:156] Memory required for data: 3412224
I0512 12:59:07.934080 20639 layer_factory.hpp:77] Creating layer bn0
I0512 12:59:07.934103 20639 net.cpp:91] Creating Layer bn0
I0512 12:59:07.934144 20639 net.cpp:425] bn0 <- conv0
I0512 12:59:07.934165 20639 net.cpp:399] bn0 -> bn0
I0512 12:59:07.934237 20639 net.cpp:141] Setting up bn0
I0512 12:59:07.934298 20639 net.cpp:148] Top shape: 64 16 28 28 (802816)
I0512 12:59:07.934326 20639 net.cpp:156] Memory required for data: 6623488
I0512 12:59:07.934360 20639 layer_factory.hpp:77] Creating layer relu0
I0512 12:59:07.934381 20639 net.cpp:91] Creating Layer relu0
I0512 12:59:07.934391 20639 net.cpp:425] relu0 <- bn0
I0512 12:59:07.934404 20639 net.cpp:386] relu0 -> bn0 (in-place)
I0512 12:59:07.934427 20639 net.cpp:141] Setting up relu0
I0512 12:59:07.934447 20639 net.cpp:148] Top shape: 64 16 28 28 (802816)
I0512 12:59:07.934469 20639 net.cpp:156] Memory required for data: 9834752
I0512 12:59:07.934494 20639 layer_factory.hpp:77] Creating layer bn0_relu0_0_split
I0512 12:59:07.934514 20639 net.cpp:91] Creating Layer bn0_relu0_0_split
I0512 12:59:07.934541 20639 net.cpp:425] bn0_relu0_0_split <- bn0
I0512 12:59:07.934557 20639 net.cpp:399] bn0_relu0_0_split -> bn0_relu0_0_split_0
I0512 12:59:07.934576 20639 net.cpp:399] bn0_relu0_0_split -> bn0_relu0_0_split_1
I0512 12:59:07.934602 20639 net.cpp:141] Setting up bn0_relu0_0_split
I0512 12:59:07.934630 20639 net.cpp:148] Top shape: 64 16 28 28 (802816)
I0512 12:59:07.934653 20639 net.cpp:148] Top shape: 64 16 28 28 (802816)
I0512 12:59:07.934669 20639 net.cpp:156] Memory required for data: 16257280
I0512 12:59:07.934679 20639 layer_factory.hpp:77] Creating layer conv1_1_1
I0512 12:59:07.934700 20639 net.cpp:91] Creating Layer conv1_1_1
I0512 12:59:07.934710 20639 net.cpp:425] conv1_1_1 <- bn0_relu0_0_split_0
I0512 12:59:07.934726 20639 net.cpp:399] conv1_1_1 -> conv1_1_1
I0512 12:59:07.934835 20639 net.cpp:141] Setting up conv1_1_1
I0512 12:59:07.934857 20639 net.cpp:148] Top shape: 64 16 28 28 (802816)
I0512 12:59:07.934870 20639 net.cpp:156] Memory required for data: 19468544
I0512 12:59:07.934892 20639 layer_factory.hpp:77] Creating layer bn1_1_1
I0512 12:59:07.934921 20639 net.cpp:91] Creating Layer bn1_1_1
I0512 12:59:07.934931 20639 net.cpp:425] bn1_1_1 <- conv1_1_1
I0512 12:59:07.934962 20639 net.cpp:399] bn1_1_1 -> bn1_1_1
I0512 12:59:07.935011 20639 net.cpp:141] Setting up bn1_1_1
I0512 12:59:07.935052 20639 net.cpp:148] Top shape: 64 16 28 28 (802816)
I0512 12:59:07.935065 20639 net.cpp:156] Memory required for data: 22679808
I0512 12:59:07.935098 20639 layer_factory.hpp:77] Creating layer relu1_1_1
I0512 12:59:07.935120 20639 net.cpp:91] Creating Layer relu1_1_1
I0512 12:59:07.935132 20639 net.cpp:425] relu1_1_1 <- bn1_1_1
I0512 12:59:07.935168 20639 net.cpp:386] relu1_1_1 -> bn1_1_1 (in-place)
I0512 12:59:07.935184 20639 net.cpp:141] Setting up relu1_1_1
I0512 12:59:07.935209 20639 net.cpp:148] Top shape: 64 16 28 28 (802816)
I0512 12:59:07.935245 20639 net.cpp:156] Memory required for data: 25891072
I0512 12:59:07.935259 20639 layer_factory.hpp:77] Creating layer conv1_1_2
I0512 12:59:07.935282 20639 net.cpp:91] Creating Layer conv1_1_2
I0512 12:59:07.935302 20639 net.cpp:425] conv1_1_2 <- bn1_1_1
I0512 12:59:07.935323 20639 net.cpp:399] conv1_1_2 -> conv1_1_2
I0512 12:59:07.935437 20639 net.cpp:141] Setting up conv1_1_2
I0512 12:59:07.935463 20639 net.cpp:148] Top shape: 64 16 28 28 (802816)
I0512 12:59:07.935477 20639 net.cpp:156] Memory required for data: 29102336
I0512 12:59:07.935503 20639 layer_factory.hpp:77] Creating layer bn1_1_2
I0512 12:59:07.935526 20639 net.cpp:91] Creating Layer bn1_1_2
I0512 12:59:07.935539 20639 net.cpp:425] bn1_1_2 <- conv1_1_2
I0512 12:59:07.935567 20639 net.cpp:399] bn1_1_2 -> bn1_1_2
I0512 12:59:07.935626 20639 net.cpp:141] Setting up bn1_1_2
I0512 12:59:07.935647 20639 net.cpp:148] Top shape: 64 16 28 28 (802816)
I0512 12:59:07.935655 20639 net.cpp:156] Memory required for data: 32313600
I0512 12:59:07.935675 20639 layer_factory.hpp:77] Creating layer relu1_1_2
I0512 12:59:07.935688 20639 net.cpp:91] Creating Layer relu1_1_2
I0512 12:59:07.935698 20639 net.cpp:425] relu1_1_2 <- bn1_1_2
I0512 12:59:07.935720 20639 net.cpp:386] relu1_1_2 -> bn1_1_2 (in-place)
I0512 12:59:07.935740 20639 net.cpp:141] Setting up relu1_1_2
I0512 12:59:07.935753 20639 net.cpp:148] Top shape: 64 16 28 28 (802816)
I0512 12:59:07.935766 20639 net.cpp:156] Memory required for data: 35524864
I0512 12:59:07.935783 20639 layer_factory.hpp:77] Creating layer elt_1_1
I0512 12:59:07.935802 20639 net.cpp:91] Creating Layer elt_1_1
I0512 12:59:07.935812 20639 net.cpp:425] elt_1_1 <- bn0_relu0_0_split_1
I0512 12:59:07.935827 20639 net.cpp:425] elt_1_1 <- bn1_1_2
I0512 12:59:07.935845 20639 net.cpp:399] elt_1_1 -> elt1_1
I0512 12:59:07.935874 20639 net.cpp:141] Setting up elt_1_1
I0512 12:59:07.935896 20639 net.cpp:148] Top shape: 64 16 28 28 (802816)
I0512 12:59:07.935905 20639 net.cpp:156] Memory required for data: 38736128
I0512 12:59:07.935925 20639 layer_factory.hpp:77] Creating layer elt1_1_elt_1_1_0_split
I0512 12:59:07.935966 20639 net.cpp:91] Creating Layer elt1_1_elt_1_1_0_split
I0512 12:59:07.935979 20639 net.cpp:425] elt1_1_elt_1_1_0_split <- elt1_1
I0512 12:59:07.935993 20639 net.cpp:399] elt1_1_elt_1_1_0_split -> elt1_1_elt_1_1_0_split_0
I0512 12:59:07.936012 20639 net.cpp:399] elt1_1_elt_1_1_0_split -> elt1_1_elt_1_1_0_split_1
I0512 12:59:07.936039 20639 net.cpp:141] Setting up elt1_1_elt_1_1_0_split
I0512 12:59:07.936064 20639 net.cpp:148] Top shape: 64 16 28 28 (802816)
I0512 12:59:07.936079 20639 net.cpp:148] Top shape: 64 16 28 28 (802816)
I0512 12:59:07.936101 20639 net.cpp:156] Memory required for data: 45158656
I0512 12:59:07.936123 20639 layer_factory.hpp:77] Creating layer conv2_1_1
I0512 12:59:07.936156 20639 net.cpp:91] Creating Layer conv2_1_1
I0512 12:59:07.936167 20639 net.cpp:425] conv2_1_1 <- elt1_1_elt_1_1_0_split_0
I0512 12:59:07.936200 20639 net.cpp:399] conv2_1_1 -> conv2_1_1
I0512 12:59:07.936372 20639 net.cpp:141] Setting up conv2_1_1
I0512 12:59:07.936394 20639 net.cpp:148] Top shape: 64 32 14 14 (401408)
I0512 12:59:07.936403 20639 net.cpp:156] Memory required for data: 46764288
I0512 12:59:07.936425 20639 layer_factory.hpp:77] Creating layer bn2_1_1
I0512 12:59:07.936455 20639 net.cpp:91] Creating Layer bn2_1_1
I0512 12:59:07.936468 20639 net.cpp:425] bn2_1_1 <- conv2_1_1
I0512 12:59:07.936483 20639 net.cpp:399] bn2_1_1 -> bn2_1_1
I0512 12:59:07.936519 20639 net.cpp:141] Setting up bn2_1_1
I0512 12:59:07.936534 20639 net.cpp:148] Top shape: 64 32 14 14 (401408)
I0512 12:59:07.936543 20639 net.cpp:156] Memory required for data: 48369920
I0512 12:59:07.936568 20639 layer_factory.hpp:77] Creating layer relu2_1_1
I0512 12:59:07.936594 20639 net.cpp:91] Creating Layer relu2_1_1
I0512 12:59:07.936609 20639 net.cpp:425] relu2_1_1 <- bn2_1_1
I0512 12:59:07.936653 20639 net.cpp:386] relu2_1_1 -> bn2_1_1 (in-place)
I0512 12:59:07.936672 20639 net.cpp:141] Setting up relu2_1_1
I0512 12:59:07.936722 20639 net.cpp:148] Top shape: 64 32 14 14 (401408)
I0512 12:59:07.936743 20639 net.cpp:156] Memory required for data: 49975552
I0512 12:59:07.936761 20639 layer_factory.hpp:77] Creating layer conv2_1_2
I0512 12:59:07.936785 20639 net.cpp:91] Creating Layer conv2_1_2
I0512 12:59:07.936813 20639 net.cpp:425] conv2_1_2 <- bn2_1_1
I0512 12:59:07.936843 20639 net.cpp:399] conv2_1_2 -> conv2_1_2
I0512 12:59:07.937150 20639 net.cpp:141] Setting up conv2_1_2
I0512 12:59:07.937173 20639 net.cpp:148] Top shape: 64 32 14 14 (401408)
I0512 12:59:07.937182 20639 net.cpp:156] Memory required for data: 51581184
I0512 12:59:07.937198 20639 layer_factory.hpp:77] Creating layer bn2_1_2
I0512 12:59:07.937213 20639 net.cpp:91] Creating Layer bn2_1_2
I0512 12:59:07.937222 20639 net.cpp:425] bn2_1_2 <- conv2_1_2
I0512 12:59:07.937237 20639 net.cpp:399] bn2_1_2 -> bn2_1_2
I0512 12:59:07.937273 20639 net.cpp:141] Setting up bn2_1_2
I0512 12:59:07.937286 20639 net.cpp:148] Top shape: 64 32 14 14 (401408)
I0512 12:59:07.937309 20639 net.cpp:156] Memory required for data: 53186816
I0512 12:59:07.937342 20639 layer_factory.hpp:77] Creating layer relu2_1_2
I0512 12:59:07.937368 20639 net.cpp:91] Creating Layer relu2_1_2
I0512 12:59:07.937382 20639 net.cpp:425] relu2_1_2 <- bn2_1_2
I0512 12:59:07.937397 20639 net.cpp:386] relu2_1_2 -> bn2_1_2 (in-place)
I0512 12:59:07.937414 20639 net.cpp:141] Setting up relu2_1_2
I0512 12:59:07.937439 20639 net.cpp:148] Top shape: 64 32 14 14 (401408)
I0512 12:59:07.937449 20639 net.cpp:156] Memory required for data: 54792448
I0512 12:59:07.937458 20639 layer_factory.hpp:77] Creating layer res2
I0512 12:59:07.937477 20639 net.cpp:91] Creating Layer res2
I0512 12:59:07.937487 20639 net.cpp:425] res2 <- elt1_1_elt_1_1_0_split_1
I0512 12:59:07.937505 20639 net.cpp:399] res2 -> res2
I0512 12:59:07.937572 20639 net.cpp:141] Setting up res2
I0512 12:59:07.937592 20639 net.cpp:148] Top shape: 64 32 14 14 (401408)
I0512 12:59:07.937600 20639 net.cpp:156] Memory required for data: 56398080
I0512 12:59:07.937615 20639 layer_factory.hpp:77] Creating layer bn2
I0512 12:59:07.937630 20639 net.cpp:91] Creating Layer bn2
I0512 12:59:07.937639 20639 net.cpp:425] bn2 <- res2
I0512 12:59:07.937654 20639 net.cpp:399] bn2 -> bn2
I0512 12:59:07.937695 20639 net.cpp:141] Setting up bn2
I0512 12:59:07.937711 20639 net.cpp:148] Top shape: 64 32 14 14 (401408)
I0512 12:59:07.937719 20639 net.cpp:156] Memory required for data: 58003712
I0512 12:59:07.937737 20639 layer_factory.hpp:77] Creating layer relu2
I0512 12:59:07.937749 20639 net.cpp:91] Creating Layer relu2
I0512 12:59:07.937759 20639 net.cpp:425] relu2 <- bn2
I0512 12:59:07.937780 20639 net.cpp:386] relu2 -> bn2 (in-place)
I0512 12:59:07.937796 20639 net.cpp:141] Setting up relu2
I0512 12:59:07.937808 20639 net.cpp:148] Top shape: 64 32 14 14 (401408)
I0512 12:59:07.937818 20639 net.cpp:156] Memory required for data: 59609344
I0512 12:59:07.937825 20639 layer_factory.hpp:77] Creating layer elt_2_1
I0512 12:59:07.937839 20639 net.cpp:91] Creating Layer elt_2_1
I0512 12:59:07.937846 20639 net.cpp:425] elt_2_1 <- bn2
I0512 12:59:07.937857 20639 net.cpp:425] elt_2_1 <- bn2_1_2
I0512 12:59:07.937872 20639 net.cpp:399] elt_2_1 -> elt2_1
I0512 12:59:07.937898 20639 net.cpp:141] Setting up elt_2_1
I0512 12:59:07.937913 20639 net.cpp:148] Top shape: 64 32 14 14 (401408)
I0512 12:59:07.937922 20639 net.cpp:156] Memory required for data: 61214976
I0512 12:59:07.937929 20639 layer_factory.hpp:77] Creating layer elt2_1_elt_2_1_0_split
I0512 12:59:07.937943 20639 net.cpp:91] Creating Layer elt2_1_elt_2_1_0_split
I0512 12:59:07.937952 20639 net.cpp:425] elt2_1_elt_2_1_0_split <- elt2_1
I0512 12:59:07.937969 20639 net.cpp:399] elt2_1_elt_2_1_0_split -> elt2_1_elt_2_1_0_split_0
I0512 12:59:07.937994 20639 net.cpp:399] elt2_1_elt_2_1_0_split -> elt2_1_elt_2_1_0_split_1
I0512 12:59:07.938014 20639 net.cpp:141] Setting up elt2_1_elt_2_1_0_split
I0512 12:59:07.938031 20639 net.cpp:148] Top shape: 64 32 14 14 (401408)
I0512 12:59:07.938043 20639 net.cpp:148] Top shape: 64 32 14 14 (401408)
I0512 12:59:07.938071 20639 net.cpp:156] Memory required for data: 64426240
I0512 12:59:07.938081 20639 layer_factory.hpp:77] Creating layer conv3_1_1
I0512 12:59:07.938100 20639 net.cpp:91] Creating Layer conv3_1_1
I0512 12:59:07.938110 20639 net.cpp:425] conv3_1_1 <- elt2_1_elt_2_1_0_split_0
I0512 12:59:07.938127 20639 net.cpp:399] conv3_1_1 -> conv3_1_1
I0512 12:59:07.938649 20639 net.cpp:141] Setting up conv3_1_1
I0512 12:59:07.938673 20639 net.cpp:148] Top shape: 64 64 7 7 (200704)
I0512 12:59:07.938683 20639 net.cpp:156] Memory required for data: 65229056
I0512 12:59:07.938699 20639 layer_factory.hpp:77] Creating layer bn3_1_1
I0512 12:59:07.938714 20639 net.cpp:91] Creating Layer bn3_1_1
I0512 12:59:07.938722 20639 net.cpp:425] bn3_1_1 <- conv3_1_1
I0512 12:59:07.938737 20639 net.cpp:399] bn3_1_1 -> bn3_1_1
I0512 12:59:07.938769 20639 net.cpp:141] Setting up bn3_1_1
I0512 12:59:07.938782 20639 net.cpp:148] Top shape: 64 64 7 7 (200704)
I0512 12:59:07.938791 20639 net.cpp:156] Memory required for data: 66031872
I0512 12:59:07.938815 20639 layer_factory.hpp:77] Creating layer relu3_1_1
I0512 12:59:07.938828 20639 net.cpp:91] Creating Layer relu3_1_1
I0512 12:59:07.938841 20639 net.cpp:425] relu3_1_1 <- bn3_1_1
I0512 12:59:07.938863 20639 net.cpp:386] relu3_1_1 -> bn3_1_1 (in-place)
I0512 12:59:07.938879 20639 net.cpp:141] Setting up relu3_1_1
I0512 12:59:07.938891 20639 net.cpp:148] Top shape: 64 64 7 7 (200704)
I0512 12:59:07.938899 20639 net.cpp:156] Memory required for data: 66834688
I0512 12:59:07.938908 20639 layer_factory.hpp:77] Creating layer conv3_1_2
I0512 12:59:07.938926 20639 net.cpp:91] Creating Layer conv3_1_2
I0512 12:59:07.938941 20639 net.cpp:425] conv3_1_2 <- bn3_1_1
I0512 12:59:07.938961 20639 net.cpp:399] conv3_1_2 -> conv3_1_2
I0512 12:59:07.939936 20639 net.cpp:141] Setting up conv3_1_2
I0512 12:59:07.939962 20639 net.cpp:148] Top shape: 64 64 7 7 (200704)
I0512 12:59:07.939972 20639 net.cpp:156] Memory required for data: 67637504
I0512 12:59:07.939987 20639 layer_factory.hpp:77] Creating layer bn3_1_2
I0512 12:59:07.940002 20639 net.cpp:91] Creating Layer bn3_1_2
I0512 12:59:07.940012 20639 net.cpp:425] bn3_1_2 <- conv3_1_2
I0512 12:59:07.940026 20639 net.cpp:399] bn3_1_2 -> bn3_1_2
I0512 12:59:07.940057 20639 net.cpp:141] Setting up bn3_1_2
I0512 12:59:07.940071 20639 net.cpp:148] Top shape: 64 64 7 7 (200704)
I0512 12:59:07.940079 20639 net.cpp:156] Memory required for data: 68440320
I0512 12:59:07.940096 20639 layer_factory.hpp:77] Creating layer relu3_1_2
I0512 12:59:07.940109 20639 net.cpp:91] Creating Layer relu3_1_2
I0512 12:59:07.940119 20639 net.cpp:425] relu3_1_2 <- bn3_1_2
I0512 12:59:07.940130 20639 net.cpp:386] relu3_1_2 -> bn3_1_2 (in-place)
I0512 12:59:07.940145 20639 net.cpp:141] Setting up relu3_1_2
I0512 12:59:07.940158 20639 net.cpp:148] Top shape: 64 64 7 7 (200704)
I0512 12:59:07.940174 20639 net.cpp:156] Memory required for data: 69243136
I0512 12:59:07.940186 20639 layer_factory.hpp:77] Creating layer res3
I0512 12:59:07.940206 20639 net.cpp:91] Creating Layer res3
I0512 12:59:07.940215 20639 net.cpp:425] res3 <- elt2_1_elt_2_1_0_split_1
I0512 12:59:07.940230 20639 net.cpp:399] res3 -> res3
I0512 12:59:07.940335 20639 net.cpp:141] Setting up res3
I0512 12:59:07.940357 20639 net.cpp:148] Top shape: 64 64 7 7 (200704)
I0512 12:59:07.940366 20639 net.cpp:156] Memory required for data: 70045952
I0512 12:59:07.940382 20639 layer_factory.hpp:77] Creating layer bn3
I0512 12:59:07.940397 20639 net.cpp:91] Creating Layer bn3
I0512 12:59:07.940412 20639 net.cpp:425] bn3 <- res3
I0512 12:59:07.940428 20639 net.cpp:399] bn3 -> bn3
I0512 12:59:07.940459 20639 net.cpp:141] Setting up bn3
I0512 12:59:07.940472 20639 net.cpp:148] Top shape: 64 64 7 7 (200704)
I0512 12:59:07.940481 20639 net.cpp:156] Memory required for data: 70848768
I0512 12:59:07.940498 20639 layer_factory.hpp:77] Creating layer relu3
I0512 12:59:07.940516 20639 net.cpp:91] Creating Layer relu3
I0512 12:59:07.940529 20639 net.cpp:425] relu3 <- bn3
I0512 12:59:07.940556 20639 net.cpp:386] relu3 -> bn3 (in-place)
I0512 12:59:07.940593 20639 net.cpp:141] Setting up relu3
I0512 12:59:07.940608 20639 net.cpp:148] Top shape: 64 64 7 7 (200704)
I0512 12:59:07.940616 20639 net.cpp:156] Memory required for data: 71651584
I0512 12:59:07.940625 20639 layer_factory.hpp:77] Creating layer elt_3_1
I0512 12:59:07.940645 20639 net.cpp:91] Creating Layer elt_3_1
I0512 12:59:07.940662 20639 net.cpp:425] elt_3_1 <- bn3
I0512 12:59:07.940675 20639 net.cpp:425] elt_3_1 <- bn3_1_2
I0512 12:59:07.940688 20639 net.cpp:399] elt_3_1 -> elt3_1
I0512 12:59:07.940706 20639 net.cpp:141] Setting up elt_3_1
I0512 12:59:07.940719 20639 net.cpp:148] Top shape: 64 64 7 7 (200704)
I0512 12:59:07.940732 20639 net.cpp:156] Memory required for data: 72454400
I0512 12:59:07.940747 20639 layer_factory.hpp:77] Creating layer gap
I0512 12:59:07.940762 20639 net.cpp:91] Creating Layer gap
I0512 12:59:07.940770 20639 net.cpp:425] gap <- elt3_1
I0512 12:59:07.940783 20639 net.cpp:399] gap -> gap
I0512 12:59:07.940809 20639 net.cpp:141] Setting up gap
I0512 12:59:07.940829 20639 net.cpp:148] Top shape: 64 64 1 1 (4096)
I0512 12:59:07.940839 20639 net.cpp:156] Memory required for data: 72470784
I0512 12:59:07.940846 20639 layer_factory.hpp:77] Creating layer ip1
I0512 12:59:07.940861 20639 net.cpp:91] Creating Layer ip1
I0512 12:59:07.940871 20639 net.cpp:425] ip1 <- gap
I0512 12:59:07.940884 20639 net.cpp:399] ip1 -> ip1
I0512 12:59:07.940943 20639 net.cpp:141] Setting up ip1
I0512 12:59:07.940963 20639 net.cpp:148] Top shape: 64 10 (640)
I0512 12:59:07.940973 20639 net.cpp:156] Memory required for data: 72473344
I0512 12:59:07.940991 20639 layer_factory.hpp:77] Creating layer loss
I0512 12:59:07.941011 20639 net.cpp:91] Creating Layer loss
I0512 12:59:07.941021 20639 net.cpp:425] loss <- ip1
I0512 12:59:07.941032 20639 net.cpp:425] loss <- label
I0512 12:59:07.941046 20639 net.cpp:399] loss -> loss
I0512 12:59:07.941066 20639 layer_factory.hpp:77] Creating layer loss
…
I0512 12:59:07.942503 20639 solver.cpp:181] Creating test net (#0) specified by net file: ./res_train_test.prototxt
I0512 12:59:07.942610 20639 net.cpp:313] The NetState phase (1) differed from the phase (0) specified by a rule in layer resnet
I0512 12:59:07.943191 20639 net.cpp:49] Initializing net from parameters: 
name: "ResNet"
state {
  phase: TEST
}
layer {
  name: "resnet"
  type: "Data"
  top: "data"
  top: "label"
  include {
    phase: TEST
  }
  transform_param {
    mirror: false
    crop_size: 28
    mean_file: "num_mean.binaryproto"
  }
  data_param {
    source: "test_lmdb"
    batch_size: 60
    backend: LMDB
  }
}
layer {
  name: "conv0"
  type: "Convolution"
  bottom: "data"
  top: "conv0"
  param {
    lr_mult: 1
  }
  param {
    lr_mult: 2
  }
  convolution_param {
    num_output: 16
    pad: 1
    kernel_size: 3
    stride: 1
    weight_filler {
      type: "gaussian"
      std: 0.0001
    }
    bias_filler {
      type: "constant"
    }
  }
}
layer {
  name: "bn0"
  type: "BatchNorm"
  bottom: "conv0"
  top: "bn0"
  param {
    lr_mult: 0
  }
  param {
    lr_mult: 0
  }
  param {
    lr_mult: 0
  }
  batch_norm_param {
    use_global_stats: false
  }
}
layer {
  name: "relu0"
  type: "ReLU"
  bottom: "bn0"
  top: "bn0"
}
layer {
  name: "conv1_1_1"
  type: "Convolution"
  bottom: "bn0"
  top: "conv1_1_1"
  param {
    lr_mult: 1
    decay_mult: 1
  }
  param {
    lr_mult: 2
    decay_mult: 1
  }
  convolution_param {
    num_output: 16
    pad: 1
    kernel_size: 3
    stride: 1
    weight_filler {
      type: "gaussian"
      std: 0.0001
    }
    bias_filler {
      type: "constant"
    }
  }
}
layer {
  name: "bn1_1_1"
  type: "BatchNorm"
  bottom: "conv1_1_1"
  top: "bn1_1_1"
  param {
    lr_mult: 0
  }
  param {
    lr_mult: 0
  }
  param {
    lr_mult: 0
  }
  batch_norm_param {
    use_global_stats: false
  }
}
layer {
  name: "relu1_1_1"
  type: "ReLU"
  bottom: "bn1_1_1"
  top: "bn1_1_1"
}
layer {
  name: "conv1_1_2"
  type: "Convolution"
  bottom: "bn1_1_1"
  top: "conv1_1_2"
  param {
    lr_mult: 1
    decay_mult: 1
  }
  param {
    lr_mult: 2
    decay_mult: 1
  }
  convolution_param {
    num_output: 16
    pad: 1
    kernel_size: 3
    stride: 1
    weight_filler {
      type: "gaussian"
      std: 0.0001
    }
    bias_filler {
      type: "constant"
    }
  }
}
layer {
  name: "bn1_1_2"
  type: "BatchNorm"
  bottom: "conv1_1_2"
  top: "bn1_1_2"
  param {
    lr_mult: 0
  }
  param {
    lr_mult: 0
  }
  param {
    lr_mult: 0
  }
  batch_norm_param {
    use_global_stats: false
  }
}
layer {
  name: "relu1_1_2"
  type: "ReLU"
  bottom: "bn1_1_2"
  top: "bn1_1_2"
}
layer {
  name: "elt_1_1"
  type: "Eltwise"
  bottom: "bn0"
  bottom: "bn1_1_2"
  top: "elt1_1"
  eltwise_param {
    operation: SUM
  }
}
layer {
  name: "conv2_1_1"
  type: "Convolution"
  bottom: "elt1_1"
  top: "conv2_1_1"
  param {
    lr_mult: 1
    decay_mult: 1
  }
  param {
    lr_mult: 2
    decay_mult: 1
  }
  convolution_param {
    num_output: 32
    pad: 1
    kernel_size: 3
    stride: 2
    weight_filler {
      type: "gaussian"
      std: 0.0001
    }
    bias_filler {
      type: "constant"
    }
  }
}
layer {
  name: "bn2_1_1"
  type: "BatchNorm"
  bottom: "conv2_1_1"
  top: "bn2_1_1"
  param {
    lr_mult: 0
  }
  param {
    lr_mult: 0
  }
  param {
    lr_mult: 0
  }
  batch_norm_param {
    use_global_stats: false
  }
}
layer {
  name: "relu2_1_1"
  type: "ReLU"
  bottom: "bn2_1_1"
  top: "bn2_1_1"
}
layer {
  name: "conv2_1_2"
  type: "Convolution"
  bottom: "bn2_1_1"
  top: "conv2_1_2"
  param {
    lr_mult: 1
    decay_mult: 1
  }
  param {
    lr_mult: 2
    decay_mult: 1
  }
  convolution_param {
    num_output: 32
    pad: 1
    kernel_size: 3
    stride: 1
    weight_filler {
      type: "gaussian"
      std: 0.0001
    }
    bias_filler {
      type: "constant"
    }
  }
}
layer {
  name: "bn2_1_2"
  type: "BatchNorm"
  bottom: "conv2_1_2"
  top: "bn2_1_2"
  param {
    lr_mult: 0
  }
  param {
    lr_mult: 0
  }
  param {
    lr_mult: 0
  }
  batch_norm_param {
    use_global_stats: false
  }
}
layer {
  name: "relu2_1_2"
  type: "ReLU"
  bottom: "bn2_1_2"
  top: "bn2_1_2"
}
layer {
  name: "res2"
  type: "Convolution"
  bottom: "elt1_1"
  top: "res2"
  param {
    lr_mult: 1
    decay_mult: 1
  }
  param {
    lr_mult: 2
    decay_mult: 1
  }
  convolution_param {
    num_output: 32
    pad: 0
    kernel_size: 1
    stride: 2
    weight_filler {
      type: "gaussian"
      std: 0.0001
    }
    bias_filler {
      type: "constant"
    }
  }
}
layer {
  name: "bn2"
  type: "BatchNorm"
  bottom: "res2"
  top: "bn2"
  param {
    lr_mult: 0
  }
  param {
    lr_mult: 0
  }
  param {
    lr_mult: 0
  }
  batch_norm_param {
    use_global_stats: false
  }
}
layer {
  name: "relu2"
  type: "ReLU"
  bottom: "bn2"
  top: "bn2"
}
layer {
  name: "elt_2_1"
  type: "Eltwise"
  bottom: "bn2"
  bottom: "bn2_1_2"
  top: "elt2_1"
  eltwise_param {
    operation: SUM
  }
}
layer {
  name: "conv3_1_1"
  type: "Convolution"
  bottom: "elt2_1"
  top: "conv3_1_1"
  param {
    lr_mult: 1
    decay_mult: 1
  }
  param {
    lr_mult: 2
    decay_mult: 1
  }
  convolution_param {
    num_output: 64
    pad: 1
    kernel_size: 3
    stride: 2
    weight_filler {
      type: "gaussian"
      std: 0.0001
    }
    bias_filler {
      type: "constant"
    }
  }
}
layer {
  name: "bn3_1_1"
  type: "BatchNorm"
  bottom: "conv3_1_1"
  top: "bn3_1_1"
  param {
    lr_mult: 0
  }
  param {
    lr_mult: 0
  }
  param {
    lr_mult: 0
  }
  batch_norm_param {
    use_global_stats: false
  }
}
layer {
  name: "relu3_1_1"
  type: "ReLU"
  bottom: "bn3_1_1"
  top: "bn3_1_1"
}
layer {
  name: "conv3_1_2"
  type: "Convolution"
  bottom: "bn3_1_1"
  top: "conv3_1_2"
  param {
    lr_mult: 1
    decay_mult: 1
  }
  param {
    lr_mult: 2
    decay_mult: 1
  }
  convolution_param {
    num_output: 64
    pad: 1
    kernel_size: 3
    stride: 1
    weight_filler {
      type: "gaussian"
      std: 0.0001
    }
    bias_filler {
      type: "constant"
    }
  }
}
layer {
  name: "bn3_1_2"
  type: "BatchNorm"
  bottom: "conv3_1_2"
  top: "bn3_1_2"
  param {
    lr_mult: 0
  }
  param {
    lr_mult: 0
  }
  param {
    lr_mult: 0
  }
  batch_norm_param {
    use_global_stats: false
  }
}
layer {
  name: "relu3_1_2"
  type: "ReLU"
  bottom: "bn3_1_2"
  top: "bn3_1_2"
}
layer {
  name: "res3"
  type: "Convolution"
  bottom: "elt2_1"
  top: "res3"
  param {
    lr_mult: 1
    decay_mult: 1
  }
  param {
    lr_mult: 2
    decay_mult: 1
  }
  convolution_param {
    num_output: 64
    pad: 0
    kernel_size: 1
    stride: 2
    weight_filler {
      type: "gaussian"
      std: 0.0001
    }
    bias_filler {
      type: "constant"
    }
  }
}
layer {
  name: "bn3"
  type: "BatchNorm"
  bottom: "res3"
  top: "bn3"
  param {
    lr_mult: 0
  }
  param {
    lr_mult: 0
  }
  param {
    lr_mult: 0
  }
  batch_norm_param {
    use_global_stats: false
  }
}
layer {
  name: "relu3"
  type: "ReLU"
  bottom: "bn3"
  top: "bn3"
}
layer {
  name: "elt_3_1"
  type: "Eltwise"
  bottom: "bn3"
  bottom: "bn3_1_2"
  top: "elt3_1"
  eltwise_param {
    operation: SUM
  }
}
layer {
  name: "gap"
  type: "Pooling"
  bottom: "elt3_1"
  top: "gap"
  pooling_param {
    pool: AVE
    kernel_size: 7
    stride: 1
  }
}
layer {
  name: "ip1"
  type: "InnerProduct"
  bottom: "gap"
  top: "ip1"
  param {
    lr_mult: 1
    decay_mult: 1
  }
  param {
    lr_mult: 2
    decay_mult: 0
  }
  inner_product_param {
    num_output: 10
    weight_filler {
      type: "gaussian"
      std: 0.01
    }
    bias_filler {
      type: "constant"
      value: 0
    }
  }
}
layer {
  name: "accuracy"
  type: "Accuracy"
  bottom: "ip1"
  bottom: "label"
  top: "accuracy"
  include {
    phase: TEST
  }
}
layer {
  name: "loss"
  type: "SoftmaxWithLoss"
  bottom: "ip1"
  bottom: "label"
  top: "loss"
}
I0512 12:59:07.943529 20639 layer_factory.hpp:77] Creating layer resnet
I0512 12:59:07.944067 20639 net.cpp:91] Creating Layer resnet
I0512 12:59:07.944097 20639 net.cpp:399] resnet -> data
I0512 12:59:07.944124 20639 net.cpp:399] resnet -> label
I0512 12:59:07.944144 20639 data_transformer.cpp:25] Loading mean file from: num_mean.binaryproto
I0512 12:59:07.944165 20643 db_lmdb.cpp:38] Opened lmdb test_lmdb
I0512 12:59:07.944257 20639 data_layer.cpp:41] output data size: 60,1,28,28
I0512 12:59:07.944474 20639 net.cpp:141] Setting up resnet
I0512 12:59:07.944499 20639 net.cpp:148] Top shape: 60 1 28 28 (47040)
I0512 12:59:07.944510 20639 net.cpp:148] Top shape: 60 (60)
I0512 12:59:07.944520 20639 net.cpp:156] Memory required for data: 188400
I0512 12:59:07.944538 20639 layer_factory.hpp:77] Creating layer label_resnet_1_split
I0512 12:59:07.944557 20639 net.cpp:91] Creating Layer label_resnet_1_split
I0512 12:59:07.944567 20639 net.cpp:425] label_resnet_1_split <- label
I0512 12:59:07.944581 20639 net.cpp:399] label_resnet_1_split -> label_resnet_1_split_0
I0512 12:59:07.944636 20639 net.cpp:399] label_resnet_1_split -> label_resnet_1_split_1
I0512 12:59:07.944666 20639 net.cpp:141] Setting up label_resnet_1_split
I0512 12:59:07.944699 20639 net.cpp:148] Top shape: 60 (60)
I0512 12:59:07.944712 20639 net.cpp:148] Top shape: 60 (60)
I0512 12:59:07.944723 20639 net.cpp:156] Memory required for data: 188880
I0512 12:59:07.944732 20639 layer_factory.hpp:77] Creating layer conv0
I0512 12:59:07.944777 20639 net.cpp:91] Creating Layer conv0
I0512 12:59:07.944790 20639 net.cpp:425] conv0 <- data
I0512 12:59:07.944821 20639 net.cpp:399] conv0 -> conv0
I0512 12:59:07.944885 20639 net.cpp:141] Setting up conv0
I0512 12:59:07.944907 20639 net.cpp:148] Top shape: 60 16 28 28 (752640)
I0512 12:59:07.944916 20639 net.cpp:156] Memory required for data: 3199440
I0512 12:59:07.944939 20639 layer_factory.hpp:77] Creating layer bn0
I0512 12:59:07.944959 20639 net.cpp:91] Creating Layer bn0
I0512 12:59:07.944973 20639 net.cpp:425] bn0 <- conv0
I0512 12:59:07.945013 20639 net.cpp:399] bn0 -> bn0
I0512 12:59:07.945050 20639 net.cpp:141] Setting up bn0
I0512 12:59:07.945070 20639 net.cpp:148] Top shape: 60 16 28 28 (752640)
I0512 12:59:07.945089 20639 net.cpp:156] Memory required for data: 6210000
I0512 12:59:07.945122 20639 layer_factory.hpp:77] Creating layer relu0
I0512 12:59:07.945142 20639 net.cpp:91] Creating Layer relu0
I0512 12:59:07.945152 20639 net.cpp:425] relu0 <- bn0
I0512 12:59:07.945165 20639 net.cpp:386] relu0 -> bn0 (in-place)
I0512 12:59:07.945193 20639 net.cpp:141] Setting up relu0
I0512 12:59:07.945210 20639 net.cpp:148] Top shape: 60 16 28 28 (752640)
I0512 12:59:07.945232 20639 net.cpp:156] Memory required for data: 9220560
I0512 12:59:07.945242 20639 layer_factory.hpp:77] Creating layer bn0_relu0_0_split
I0512 12:59:07.945271 20639 net.cpp:91] Creating Layer bn0_relu0_0_split
I0512 12:59:07.945309 20639 net.cpp:425] bn0_relu0_0_split <- bn0
I0512 12:59:07.945339 20639 net.cpp:399] bn0_relu0_0_split -> bn0_relu0_0_split_0
I0512 12:59:07.945372 20639 net.cpp:399] bn0_relu0_0_split -> bn0_relu0_0_split_1
I0512 12:59:07.945396 20639 net.cpp:141] Setting up bn0_relu0_0_split
I0512 12:59:07.945436 20639 net.cpp:148] Top shape: 60 16 28 28 (752640)
I0512 12:59:07.945447 20639 net.cpp:148] Top shape: 60 16 28 28 (752640)
I0512 12:59:07.945457 20639 net.cpp:156] Memory required for data: 15241680
I0512 12:59:07.945479 20639 layer_factory.hpp:77] Creating layer conv1_1_1
I0512 12:59:07.945507 20639 net.cpp:91] Creating Layer conv1_1_1
I0512 12:59:07.945520 20639 net.cpp:425] conv1_1_1 <- bn0_relu0_0_split_0
I0512 12:59:07.945538 20639 net.cpp:399] conv1_1_1 -> conv1_1_1
I0512 12:59:07.945657 20639 net.cpp:141] Setting up conv1_1_1
I0512 12:59:07.945680 20639 net.cpp:148] Top shape: 60 16 28 28 (752640)
I0512 12:59:07.945689 20639 net.cpp:156] Memory required for data: 18252240
I0512 12:59:07.945705 20639 layer_factory.hpp:77] Creating layer bn1_1_1
I0512 12:59:07.945772 20639 net.cpp:91] Creating Layer bn1_1_1
I0512 12:59:07.945783 20639 net.cpp:425] bn1_1_1 <- conv1_1_1
I0512 12:59:07.945803 20639 net.cpp:399] bn1_1_1 -> bn1_1_1
I0512 12:59:07.945847 20639 net.cpp:141] Setting up bn1_1_1
I0512 12:59:07.945868 20639 net.cpp:148] Top shape: 60 16 28 28 (752640)
I0512 12:59:07.945876 20639 net.cpp:156] Memory required for data: 21262800
I0512 12:59:07.945900 20639 layer_factory.hpp:77] Creating layer relu1_1_1
I0512 12:59:07.945916 20639 net.cpp:91] Creating Layer relu1_1_1
I0512 12:59:07.945927 20639 net.cpp:425] relu1_1_1 <- bn1_1_1
I0512 12:59:07.945955 20639 net.cpp:386] relu1_1_1 -> bn1_1_1 (in-place)
I0512 12:59:07.945971 20639 net.cpp:141] Setting up relu1_1_1
I0512 12:59:07.945991 20639 net.cpp:148] Top shape: 60 16 28 28 (752640)
I0512 12:59:07.946007 20639 net.cpp:156] Memory required for data: 24273360
I0512 12:59:07.946020 20639 layer_factory.hpp:77] Creating layer conv1_1_2
I0512 12:59:07.946040 20639 net.cpp:91] Creating Layer conv1_1_2
I0512 12:59:07.946053 20639 net.cpp:425] conv1_1_2 <- bn1_1_1
I0512 12:59:07.946069 20639 net.cpp:399] conv1_1_2 -> conv1_1_2
I0512 12:59:07.946182 20639 net.cpp:141] Setting up conv1_1_2
I0512 12:59:07.946213 20639 net.cpp:148] Top shape: 60 16 28 28 (752640)
I0512 12:59:07.946223 20639 net.cpp:156] Memory required for data: 27283920
I0512 12:59:07.946238 20639 layer_factory.hpp:77] Creating layer bn1_1_2
I0512 12:59:07.946255 20639 net.cpp:91] Creating Layer bn1_1_2
I0512 12:59:07.946281 20639 net.cpp:425] bn1_1_2 <- conv1_1_2
I0512 12:59:07.946316 20639 net.cpp:399] bn1_1_2 -> bn1_1_2
I0512 12:59:07.946357 20639 net.cpp:141] Setting up bn1_1_2
I0512 12:59:07.946384 20639 net.cpp:148] Top shape: 60 16 28 28 (752640)
I0512 12:59:07.946393 20639 net.cpp:156] Memory required for data: 30294480
I0512 12:59:07.946430 20639 layer_factory.hpp:77] Creating layer relu1_1_2
I0512 12:59:07.946446 20639 net.cpp:91] Creating Layer relu1_1_2
I0512 12:59:07.946460 20639 net.cpp:425] relu1_1_2 <- bn1_1_2
I0512 12:59:07.946483 20639 net.cpp:386] relu1_1_2 -> bn1_1_2 (in-place)
I0512 12:59:07.946502 20639 net.cpp:141] Setting up relu1_1_2
I0512 12:59:07.946516 20639 net.cpp:148] Top shape: 60 16 28 28 (752640)
I0512 12:59:07.946523 20639 net.cpp:156] Memory required for data: 33305040
I0512 12:59:07.946549 20639 layer_factory.hpp:77] Creating layer elt_1_1
I0512 12:59:07.946569 20639 net.cpp:91] Creating Layer elt_1_1
I0512 12:59:07.946579 20639 net.cpp:425] elt_1_1 <- bn0_relu0_0_split_1
I0512 12:59:07.946590 20639 net.cpp:425] elt_1_1 <- bn1_1_2
I0512 12:59:07.946609 20639 net.cpp:399] elt_1_1 -> elt1_1
I0512 12:59:07.946635 20639 net.cpp:141] Setting up elt_1_1
I0512 12:59:07.946653 20639 net.cpp:148] Top shape: 60 16 28 28 (752640)
I0512 12:59:07.946665 20639 net.cpp:156] Memory required for data: 36315600
I0512 12:59:07.946677 20639 layer_factory.hpp:77] Creating layer elt1_1_elt_1_1_0_split
I0512 12:59:07.946702 20639 net.cpp:91] Creating Layer elt1_1_elt_1_1_0_split
I0512 12:59:07.946732 20639 net.cpp:425] elt1_1_elt_1_1_0_split <- elt1_1
I0512 12:59:07.946751 20639 net.cpp:399] elt1_1_elt_1_1_0_split -> elt1_1_elt_1_1_0_split_0
I0512 12:59:07.946770 20639 net.cpp:399] elt1_1_elt_1_1_0_split -> elt1_1_elt_1_1_0_split_1
I0512 12:59:07.946799 20639 net.cpp:141] Setting up elt1_1_elt_1_1_0_split
I0512 12:59:07.946833 20639 net.cpp:148] Top shape: 60 16 28 28 (752640)
I0512 12:59:07.946849 20639 net.cpp:148] Top shape: 60 16 28 28 (752640)
I0512 12:59:07.946861 20639 net.cpp:156] Memory required for data: 42336720
I0512 12:59:07.946879 20639 layer_factory.hpp:77] Creating layer conv2_1_1
I0512 12:59:07.946905 20639 net.cpp:91] Creating Layer conv2_1_1
I0512 12:59:07.946928 20639 net.cpp:425] conv2_1_1 <- elt1_1_elt_1_1_0_split_0
I0512 12:59:07.946944 20639 net.cpp:399] conv2_1_1 -> conv2_1_1
I0512 12:59:07.947119 20639 net.cpp:141] Setting up conv2_1_1
I0512 12:59:07.947144 20639 net.cpp:148] Top shape: 60 32 14 14 (376320)
I0512 12:59:07.947159 20639 net.cpp:156] Memory required for data: 43842000
I0512 12:59:07.947180 20639 layer_factory.hpp:77] Creating layer bn2_1_1
I0512 12:59:07.947204 20639 net.cpp:91] Creating Layer bn2_1_1
I0512 12:59:07.947230 20639 net.cpp:425] bn2_1_1 <- conv2_1_1
I0512 12:59:07.947260 20639 net.cpp:399] bn2_1_1 -> bn2_1_1
I0512 12:59:07.947304 20639 net.cpp:141] Setting up bn2_1_1
I0512 12:59:07.947324 20639 net.cpp:148] Top shape: 60 32 14 14 (376320)
I0512 12:59:07.947334 20639 net.cpp:156] Memory required for data: 45347280
I0512 12:59:07.947352 20639 layer_factory.hpp:77] Creating layer relu2_1_1
I0512 12:59:07.947379 20639 net.cpp:91] Creating Layer relu2_1_1
I0512 12:59:07.947393 20639 net.cpp:425] relu2_1_1 <- bn2_1_1
I0512 12:59:07.947409 20639 net.cpp:386] relu2_1_1 -> bn2_1_1 (in-place)
I0512 12:59:07.947438 20639 net.cpp:141] Setting up relu2_1_1
I0512 12:59:07.947464 20639 net.cpp:148] Top shape: 60 32 14 14 (376320)
I0512 12:59:07.947477 20639 net.cpp:156] Memory required for data: 46852560
I0512 12:59:07.947490 20639 layer_factory.hpp:77] Creating layer conv2_1_2
I0512 12:59:07.947546 20639 net.cpp:91] Creating Layer conv2_1_2
I0512 12:59:07.947561 20639 net.cpp:425] conv2_1_2 <- bn2_1_1
I0512 12:59:07.947576 20639 net.cpp:399] conv2_1_2 -> conv2_1_2
I0512 12:59:07.947875 20639 net.cpp:141] Setting up conv2_1_2
I0512 12:59:07.947896 20639 net.cpp:148] Top shape: 60 32 14 14 (376320)
I0512 12:59:07.947906 20639 net.cpp:156] Memory required for data: 48357840
I0512 12:59:07.947921 20639 layer_factory.hpp:77] Creating layer bn2_1_2
I0512 12:59:07.947935 20639 net.cpp:91] Creating Layer bn2_1_2
I0512 12:59:07.947945 20639 net.cpp:425] bn2_1_2 <- conv2_1_2
I0512 12:59:07.947962 20639 net.cpp:399] bn2_1_2 -> bn2_1_2
I0512 12:59:07.948001 20639 net.cpp:141] Setting up bn2_1_2
I0512 12:59:07.948016 20639 net.cpp:148] Top shape: 60 32 14 14 (376320)
I0512 12:59:07.948024 20639 net.cpp:156] Memory required for data: 49863120
I0512 12:59:07.948043 20639 layer_factory.hpp:77] Creating layer relu2_1_2
I0512 12:59:07.948055 20639 net.cpp:91] Creating Layer relu2_1_2
I0512 12:59:07.948065 20639 net.cpp:425] relu2_1_2 <- bn2_1_2
I0512 12:59:07.948077 20639 net.cpp:386] relu2_1_2 -> bn2_1_2 (in-place)
I0512 12:59:07.948091 20639 net.cpp:141] Setting up relu2_1_2
I0512 12:59:07.948106 20639 net.cpp:148] Top shape: 60 32 14 14 (376320)
I0512 12:59:07.948122 20639 net.cpp:156] Memory required for data: 51368400
I0512 12:59:07.948132 20639 layer_factory.hpp:77] Creating layer res2
I0512 12:59:07.948151 20639 net.cpp:91] Creating Layer res2
I0512 12:59:07.948161 20639 net.cpp:425] res2 <- elt1_1_elt_1_1_0_split_1
I0512 12:59:07.948178 20639 net.cpp:399] res2 -> res2
I0512 12:59:07.948243 20639 net.cpp:141] Setting up res2
I0512 12:59:07.948266 20639 net.cpp:148] Top shape: 60 32 14 14 (376320)
I0512 12:59:07.948276 20639 net.cpp:156] Memory required for data: 52873680
I0512 12:59:07.948290 20639 layer_factory.hpp:77] Creating layer bn2
I0512 12:59:07.948305 20639 net.cpp:91] Creating Layer bn2
I0512 12:59:07.948323 20639 net.cpp:425] bn2 <- res2
I0512 12:59:07.948340 20639 net.cpp:399] bn2 -> bn2
I0512 12:59:07.948372 20639 net.cpp:141] Setting up bn2
I0512 12:59:07.948386 20639 net.cpp:148] Top shape: 60 32 14 14 (376320)
I0512 12:59:07.948395 20639 net.cpp:156] Memory required for data: 54378960
I0512 12:59:07.948418 20639 layer_factory.hpp:77] Creating layer relu2
I0512 12:59:07.948456 20639 net.cpp:91] Creating Layer relu2
I0512 12:59:07.948467 20639 net.cpp:425] relu2 <- bn2
I0512 12:59:07.948480 20639 net.cpp:386] relu2 -> bn2 (in-place)
I0512 12:59:07.948503 20639 net.cpp:141] Setting up relu2
I0512 12:59:07.948518 20639 net.cpp:148] Top shape: 60 32 14 14 (376320)
I0512 12:59:07.948526 20639 net.cpp:156] Memory required for data: 55884240
I0512 12:59:07.948535 20639 layer_factory.hpp:77] Creating layer elt_2_1
I0512 12:59:07.948549 20639 net.cpp:91] Creating Layer elt_2_1
I0512 12:59:07.948557 20639 net.cpp:425] elt_2_1 <- bn2
I0512 12:59:07.948568 20639 net.cpp:425] elt_2_1 <- bn2_1_2
I0512 12:59:07.948585 20639 net.cpp:399] elt_2_1 -> elt2_1
I0512 12:59:07.948609 20639 net.cpp:141] Setting up elt_2_1
I0512 12:59:07.948623 20639 net.cpp:148] Top shape: 60 32 14 14 (376320)
I0512 12:59:07.948632 20639 net.cpp:156] Memory required for data: 57389520
I0512 12:59:07.948640 20639 layer_factory.hpp:77] Creating layer elt2_1_elt_2_1_0_split
I0512 12:59:07.948653 20639 net.cpp:91] Creating Layer elt2_1_elt_2_1_0_split
I0512 12:59:07.948662 20639 net.cpp:425] elt2_1_elt_2_1_0_split <- elt2_1
I0512 12:59:07.948679 20639 net.cpp:399] elt2_1_elt_2_1_0_split -> elt2_1_elt_2_1_0_split_0
I0512 12:59:07.948703 20639 net.cpp:399] elt2_1_elt_2_1_0_split -> elt2_1_elt_2_1_0_split_1
I0512 12:59:07.948726 20639 net.cpp:141] Setting up elt2_1_elt_2_1_0_split
I0512 12:59:07.948745 20639 net.cpp:148] Top shape: 60 32 14 14 (376320)
I0512 12:59:07.948756 20639 net.cpp:148] Top shape: 60 32 14 14 (376320)
I0512 12:59:07.948765 20639 net.cpp:156] Memory required for data: 60400080
I0512 12:59:07.948772 20639 layer_factory.hpp:77] Creating layer conv3_1_1
I0512 12:59:07.948792 20639 net.cpp:91] Creating Layer conv3_1_1
I0512 12:59:07.948801 20639 net.cpp:425] conv3_1_1 <- elt2_1_elt_2_1_0_split_0
I0512 12:59:07.948818 20639 net.cpp:399] conv3_1_1 -> conv3_1_1
I0512 12:59:07.949353 20639 net.cpp:141] Setting up conv3_1_1
I0512 12:59:07.949378 20639 net.cpp:148] Top shape: 60 64 7 7 (188160)
I0512 12:59:07.949388 20639 net.cpp:156] Memory required for data: 61152720
I0512 12:59:07.949403 20639 layer_factory.hpp:77] Creating layer bn3_1_1
I0512 12:59:07.949417 20639 net.cpp:91] Creating Layer bn3_1_1
I0512 12:59:07.949427 20639 net.cpp:425] bn3_1_1 <- conv3_1_1
I0512 12:59:07.949441 20639 net.cpp:399] bn3_1_1 -> bn3_1_1
I0512 12:59:07.949483 20639 net.cpp:141] Setting up bn3_1_1
I0512 12:59:07.949498 20639 net.cpp:148] Top shape: 60 64 7 7 (188160)
I0512 12:59:07.949507 20639 net.cpp:156] Memory required for data: 61905360
I0512 12:59:07.949532 20639 layer_factory.hpp:77] Creating layer relu3_1_1
I0512 12:59:07.949548 20639 net.cpp:91] Creating Layer relu3_1_1
I0512 12:59:07.949565 20639 net.cpp:425] relu3_1_1 <- bn3_1_1
I0512 12:59:07.949579 20639 net.cpp:386] relu3_1_1 -> bn3_1_1 (in-place)
I0512 12:59:07.949594 20639 net.cpp:141] Setting up relu3_1_1
I0512 12:59:07.949614 20639 net.cpp:148] Top shape: 60 64 7 7 (188160)
I0512 12:59:07.949622 20639 net.cpp:156] Memory required for data: 62658000
I0512 12:59:07.949631 20639 layer_factory.hpp:77] Creating layer conv3_1_2
I0512 12:59:07.949657 20639 net.cpp:91] Creating Layer conv3_1_2
I0512 12:59:07.949674 20639 net.cpp:425] conv3_1_2 <- bn3_1_1
I0512 12:59:07.949692 20639 net.cpp:399] conv3_1_2 -> conv3_1_2
I0512 12:59:07.950672 20639 net.cpp:141] Setting up conv3_1_2
I0512 12:59:07.950700 20639 net.cpp:148] Top shape: 60 64 7 7 (188160)
I0512 12:59:07.950708 20639 net.cpp:156] Memory required for data: 63410640
I0512 12:59:07.950723 20639 layer_factory.hpp:77] Creating layer bn3_1_2
I0512 12:59:07.950738 20639 net.cpp:91] Creating Layer bn3_1_2
I0512 12:59:07.950748 20639 net.cpp:425] bn3_1_2 <- conv3_1_2
I0512 12:59:07.950763 20639 net.cpp:399] bn3_1_2 -> bn3_1_2
I0512 12:59:07.950796 20639 net.cpp:141] Setting up bn3_1_2
I0512 12:59:07.950809 20639 net.cpp:148] Top shape: 60 64 7 7 (188160)
I0512 12:59:07.950819 20639 net.cpp:156] Memory required for data: 64163280
I0512 12:59:07.950835 20639 layer_factory.hpp:77] Creating layer relu3_1_2
I0512 12:59:07.950871 20639 net.cpp:91] Creating Layer relu3_1_2
I0512 12:59:07.950883 20639 net.cpp:425] relu3_1_2 <- bn3_1_2
I0512 12:59:07.950901 20639 net.cpp:386] relu3_1_2 -> bn3_1_2 (in-place)
I0512 12:59:07.950919 20639 net.cpp:141] Setting up relu3_1_2
I0512 12:59:07.950937 20639 net.cpp:148] Top shape: 60 64 7 7 (188160)
I0512 12:59:07.950945 20639 net.cpp:156] Memory required for data: 64915920
I0512 12:59:07.950954 20639 layer_factory.hpp:77] Creating layer res3
I0512 12:59:07.950973 20639 net.cpp:91] Creating Layer res3
I0512 12:59:07.950983 20639 net.cpp:425] res3 <- elt2_1_elt_2_1_0_split_1
I0512 12:59:07.951009 20639 net.cpp:399] res3 -> res3
I0512 12:59:07.951112 20639 net.cpp:141] Setting up res3
I0512 12:59:07.951133 20639 net.cpp:148] Top shape: 60 64 7 7 (188160)
I0512 12:59:07.951141 20639 net.cpp:156] Memory required for data: 65668560
I0512 12:59:07.951166 20639 layer_factory.hpp:77] Creating layer bn3
I0512 12:59:07.951189 20639 net.cpp:91] Creating Layer bn3
I0512 12:59:07.951198 20639 net.cpp:425] bn3 <- res3
I0512 12:59:07.951213 20639 net.cpp:399] bn3 -> bn3
I0512 12:59:07.951251 20639 net.cpp:141] Setting up bn3
I0512 12:59:07.951266 20639 net.cpp:148] Top shape: 60 64 7 7 (188160)
I0512 12:59:07.951273 20639 net.cpp:156] Memory required for data: 66421200
I0512 12:59:07.951292 20639 layer_factory.hpp:77] Creating layer relu3
I0512 12:59:07.951304 20639 net.cpp:91] Creating Layer relu3
I0512 12:59:07.951313 20639 net.cpp:425] relu3 <- bn3
I0512 12:59:07.951328 20639 net.cpp:386] relu3 -> bn3 (in-place)
I0512 12:59:07.951350 20639 net.cpp:141] Setting up relu3
I0512 12:59:07.951369 20639 net.cpp:148] Top shape: 60 64 7 7 (188160)
I0512 12:59:07.951377 20639 net.cpp:156] Memory required for data: 67173840
I0512 12:59:07.951385 20639 layer_factory.hpp:77] Creating layer elt_3_1
I0512 12:59:07.951398 20639 net.cpp:91] Creating Layer elt_3_1
I0512 12:59:07.951407 20639 net.cpp:425] elt_3_1 <- bn3
I0512 12:59:07.951417 20639 net.cpp:425] elt_3_1 <- bn3_1_2
I0512 12:59:07.951441 20639 net.cpp:399] elt_3_1 -> elt3_1
I0512 12:59:07.951467 20639 net.cpp:141] Setting up elt_3_1
I0512 12:59:07.951483 20639 net.cpp:148] Top shape: 60 64 7 7 (188160)
I0512 12:59:07.951491 20639 net.cpp:156] Memory required for data: 67926480
I0512 12:59:07.951499 20639 layer_factory.hpp:77] Creating layer gap
I0512 12:59:07.951514 20639 net.cpp:91] Creating Layer gap
I0512 12:59:07.951524 20639 net.cpp:425] gap <- elt3_1
I0512 12:59:07.951537 20639 net.cpp:399] gap -> gap
I0512 12:59:07.951562 20639 net.cpp:141] Setting up gap
I0512 12:59:07.951582 20639 net.cpp:148] Top shape: 60 64 1 1 (3840)
I0512 12:59:07.951591 20639 net.cpp:156] Memory required for data: 67941840
I0512 12:59:07.951601 20639 layer_factory.hpp:77] Creating layer ip1
I0512 12:59:07.951616 20639 net.cpp:91] Creating Layer ip1
I0512 12:59:07.951625 20639 net.cpp:425] ip1 <- gap
I0512 12:59:07.951640 20639 net.cpp:399] ip1 -> ip1
I0512 12:59:07.951704 20639 net.cpp:141] Setting up ip1
I0512 12:59:07.951725 20639 net.cpp:148] Top shape: 60 10 (600)
I0512 12:59:07.951732 20639 net.cpp:156] Memory required for data: 67944240
I0512 12:59:07.951747 20639 layer_factory.hpp:77] Creating layer ip1_ip1_0_split
I0512 12:59:07.951761 20639 net.cpp:91] Creating Layer ip1_ip1_0_split
I0512 12:59:07.951771 20639 net.cpp:425] ip1_ip1_0_split <- ip1
I0512 12:59:07.951789 20639 net.cpp:399] ip1_ip1_0_split -> ip1_ip1_0_split_0
I0512 12:59:07.951808 20639 net.cpp:399] ip1_ip1_0_split -> ip1_ip1_0_split_1
I0512 12:59:07.951827 20639 net.cpp:141] Setting up ip1_ip1_0_split
I0512 12:59:07.951838 20639 net.cpp:148] Top shape: 60 10 (600)
I0512 12:59:07.951848 20639 net.cpp:148] Top shape: 60 10 (600)
I0512 12:59:07.951855 20639 net.cpp:156] Memory required for data: 67949040
I0512 12:59:07.951864 20639 layer_factory.hpp:77] Creating layer accuracy
I0512 12:59:07.951877 20639 net.cpp:91] Creating Layer accuracy
I0512 12:59:07.951889 20639 net.cpp:425] accuracy <- ip1_ip1_0_split_0
I0512 12:59:07.951905 20639 net.cpp:425] accuracy <- label_resnet_1_split_0
I0512 12:59:07.951920 20639 net.cpp:399] accuracy -> accuracy
…
